MNIST_model1.w.npy (npy, 802944 bytes, 1 tensors)

array f8 [784, 128]
00000000: 0e20 64e4 7ccc e53f 7bb3 b542 aa0f e8bf
00000010: 69d8 4ab2 7a0a ca3f 01e5 deee b8a9 0140
00000020: 8774 d4b4 f12d e8bf dfb4 a5e8 4747 afbf
00000030: aff9 b230 c03a dcbf 0c71 24e4 2c91 dbbf
00000040: 004c 6b26 8846 cebf 7963 0acb 6265 fdbf
00000050: 9411 763f 4e5c d6bf be53 4657 3ecf e03f
00000060: 65d4 6b19 6ca2 f33f d671 cecd b9cc 0140
00000070: 5d37 fe60 1c97 90bf 0bb3 64df 5cde c0bf
00000080: 0413 ac5e f3a0 ec3f c8d8 287f 1bd3 ef3f
00000090: b541 0ad1 c88f e0bf e5c1 00f7 8e65 cd3f
000000a0: bb00 9cc6 7e58 f83f 0615 ff24 ae47 c1bf
000000b0: 46ec 6122 6120 f6bf 15ec 3e8c 83e9 e9bf
000000c0: daff b412 ac18 d03f ddfd e2ad bfe0 d5bf
000000d0: 59b0 5422 ba1b e0bf 7a7e aa03 7698 f9bf
000000e0: 18e0 089a 4a1d d93f 3095 6f75 fa2f bdbf
000000f0: bbd0 fe2a d29b b9bf 238d f4e8 a1cf f13f
00000100: 9737 7271 ef95 ddbf 11a8 3820 d407 e5bf
00000110: a096 c0b0 cfc2 e23f 33d2 16ec cba2 963f
00000120: b81a a580 8082 e93f bcaf 40a6 0fc8 bd3f
00000130: 94a5 8078 9209 e33f e802 ede3 7f4b ea3f
00000140: 789d 6942 7796 df3f 8f17 e455 8e11 fabf
00000150: ca6d 2ad2 2cf2 ddbf 67c9 41d0 c449 c5bf
00000160: c44f e886 5466 d13f 9c4a eaa7 b86e aebf
00000170: 373b a64e 215e fa3f 9594 194f c090 f0bf
00000180: 2c63 1cee 8438 dabf 2413 36b3 a60b f53f
00000190: c6ff 587a ade4 e93f 68fb a7e3 34d5 dc3f
000001a0: eb96 790c 76cb e5bf 0099 9824 fd49 ebbf
000001b0: 5f18 bd43 0324 e1bf 74da d0e1 dd0a f03f
000001c0: 052b 113d b4b1 ed3f c9d6 e4ba f156 df3f
000001d0: 1f2e f255 a313 873f 7cf3 05bc f5ff d3bf
000001e0: ea2f 4581 bc76 f13f ef0e f8ce 8de2 c23f
000001f0: b395 7cdc 6c90 e03f c95b 299e e462 ebbf
00000200: a593 46db b4f9 f03f 5e4c dcd2 8538 d2bf
00000210: c784 2bb8 2554 0640 279b 2715 551a ae3f
00000220: 647d 5071 5cb0 ef3f 073a 7d74 d147 d5bf
00000230: 1629 ac84 69e0 e03f 5f69 7c5f 0c26 dbbf
00000240: dc38 bd8b d97e e23f 180d 9373 0c54 983f
00000250: 6023 ac8e 83c1 e93f ff73 cbf6 b54b ea3f
00000260: 1972 6a4c e905 ecbf 40eb ec83 cd56 d13f
00000270: 46d5 3a0f e089 c63f 5f0b 9708 a8d2 7ebf
00000280: bc0d 023e 5521 90bf 0895 3f4b acea f33f
00000290: 337c 26eb b207 edbf a614 fd4f f2a7 d0bf
000002a0: ca8c 0dfc cb23 c23f 0575 c23b 705d e53f
000002b0: 082c f98f 77bb d83f 0273 2ec5 9dac f9bf
000002c0: 4bee 93a0 aa5a d2bf a4ee 9356 b0e7 e23f
000002d0: 121e 4c63 9dc2 dabf 6309 4ed1 17a4 c33f
000002e0: 780c 31a5 53b8 f23f 6457 bdb1 0fba de3f
000002f0: 5bc1 4406 5917 c23f 7c02 e64e a5ce eabf
00000300: c568 8cda b112 f73f f19d 3d99 c60e d33f
00000310: 543b 0167 b518 ec3f 1ab5 b0e4 d289 ecbf
00000320: ac5f fd6e 2577 f3bf e651 83d4 5469 e13f
00000330: 3c8e adf2 4dc1 0040 9c77 1720 cd95 b9bf
00000340: 73c3 e001 10ff e13f 92b1 e9e4 4124 09c0
00000350: a76b 9505 8832 0740 2440 c90a 1061 f3bf
00000360: af63 7270 24c3 04c0 492c 630e 2e02 ec3f
00000370: 305c 0cf5 c678 c6bf f658 99d5 ed17 e7bf
00000380: 8d6e 4c0a f483 e23f 0998 5d11 e71d fa3f
00000390: 5fe1 b99c 8a8b b6bf a217 12ea 0ce5 bbbf
000003a0: 984d fd96 e346 e73f 637a d206 e2a1 f23f
000003b0: 1c08 f2dd 7eb0 f1bf bbf3 be58 e2cb e93f
000003c0: 7f1d 6ce7 dcde f03f 6b06 913a 7003 f93f
000003d0: 964a 907b 6872 edbf e830 f2fe 5a74 ed3f
000003e0: 240d c79d b9bc ecbf 8060 a9d6 d92f ee3f
000003f0: 2330 7755 666c d23f 4c2a 251b 6c87 d8bf
00000400: d0b0 3c1c 9df6 f7bf ea68 3100 edc9 f93f
00000410: 6c4c 0234 0ac1 ec3f bc24 2e19 6ddd b3bf
00000420: bd47 74a0 8ff5 fc3f e06a c3fe 4449 f3bf
00000430: c1de 15c0 157d e9bf cc91 3ce9 f8f3 e23f
00000440: 24fd 34a3 c549 e3bf efa4 add3 f1bd f03f
00000450: 78c3 5006 f651 eabf 9028 d287 3fcb b23f
00000460: 0618 9792 b6e8 ebbf 28a6 3229 720a e6bf
00000470: a6ce 4767 b7f9 edbf a189 8117 eb39 ecbf
00000480: ad5c 6017 bc06 a23f 597a 19cf 957c e6bf
00000490: 5148 a9bc da2d de3f cf14 312f 5cbe ccbf
000004a0: b987 1ff6 640d e43f 6f15 049d 9baa f13f
000004b0: 7939 fa06 00b9 fbbf 10ad 14d3 5ad3 e5bf
000004c0: 26de d1e4 5b89 e43f 48e8 ff0b 1014 ec3f
000004d0: a683 6807 ad63 00c0 3a9f 6e4e 2168 f8bf
000004e0: d73a 9d88 3812 fbbf 622d e12b 57f6 f53f
000004f0: a564 5357 17e2 fdbf 258b 9014 8812 e03f
00000500: c596 5f82 9478 c9bf f1c3 e3e5 5abe ef3f
00000510: 1370 84b7 c949 f83f a5bd 403b 39a6 c43f
00000520: ab18 4dca d905 c4bf 52dc e9d1 9af6 f9bf
00000530: c649 8e9d 652c be3f 4bdf 135a ff34 b73f
00000540: b856 98a6 435b e13f c73a f591 657e d23f
00000550: dcbb 1f71 3580 b0bf 3b1b 86f3 00f5 de3f
00000560: b81c ab7c 8833 d1bf 61c4 b9d2 d644 c03f
00000570: 1611 5087 553d e03f 56ef be26 db12 efbf
00000580: b3ed 9406 bf51 e3bf 2777 8b4e ef41 adbf
00000590: 4236 eb1b 8534 d7bf d4e3 cb40 a688 e1bf
000005a0: efe4 118e dc91 e9bf f9db 8e2a ed15 f7bf
000005b0: f3bc 5391 6af3 bcbf 27fd c09b 06ac e73f
000005c0: 4a3d f4a0 768e f13f 24f0 295e 5b8d e4bf
000005d0: 85ef 47b5 0803 fb3f 1a88 120e aea8 bf3f
000005e0: 0f5a b2b8 0014 f93f acee 884c a0d6 f43f
000005f0: 4cb2 1101 565e 8fbf b2fe 444e 6d54 e7bf
00000600: 0f99 eedc 50b3 e6bf bff0 5956 fdc6 ba3f
00000610: 7f11 8d66 7228 c53f 340a c803 8210 d7bf
00000620: 135a 4a31 3046 e53f 934e 0397 d4f0 e33f
00000630: ecb8 817f 9ca6 e8bf 17f0 de6a e871 d63f
00000640: 69ce 84d2 d52d f7bf f9ab 40bb fe41 05c0
00000650: 5157 3b0f ba02 a8bf bb7c bb9d f71b dbbf
00000660: f4c8 52ee b665 dfbf 2eac b489 6730 d3bf
00000670: 8ab8 c087 4f3a e7bf b09c c2e6 069f e5bf
00000680: 138e 213c 5ef9 f13f 26a4 07ea b626 fb3f
00000690: 4ac5 b74e 172f c53f b7c3 d46a f798 d33f
000006a0: 6501 dfd7 aaee c33f 02cc 681c ec1e f6bf
000006b0: d813 b6f6 8395 e03f 60ca fe8e 323f f53f
000006c0: 7094 ee15 fb8a fdbf 639d e2ca 236d ce3f
000006d0: 0aec 27d1 7b3f dbbf 51b5 1bc1 3958 f9bf
000006e0: e327 0480 22db f43f f202 f1e7 eea5 e83f
000006f0: c191 e81d d80c f4bf 23fa f7a9 ee71 e2bf
00000700: 8e11 424f 4438 cb3f f73f 5561 3e18 db3f
00000710: cd0b 6667 c397 e6bf 0af3 9eac 54d0 ddbf
00000720: 11dc 1726 98d0 c33f 2008 bf1f 8870 b93f
00000730: 2b7a 5890 a227 fcbf 9aa4 c294 1950 f4bf
00000740: 842e c1e8 3380 c13f 170b 4a7d 35e1 f0bf
00000750: 341d af9e 4f42 f33f 18a6 bfbd 6866 e83f
00000760: c1ac abec 017c c8bf 1a83 13d0 82a9 f3bf
00000770: 7bbe c98e 254f ec3f b4f7 be26 acc2 e8bf
00000780: 0cba 03ae ae40 95bf 2dfd 576d e006 f33f
00000790: 8041 b037 0251 ed3f eb66 33d1 7d6a f13f
000007a0: 75fd 6042 ec53 d6bf e249 f933 6929 c03f
000007b0: 4163 9d6e b35d d53f 64b0 9a55 e18d b2bf
000007c0: 5f14 ce0b 4af5 fd3f ba85 fd4a 305b ed3f
000007d0: 86fb ac78 b815 e03f 9989 e1c7 5b14 d93f
000007e0: f32c 61f7 abea efbf d8d0 8ec9 7b1b e1bf
000007f0: df11 a3d9 3040 ecbf d85d 5a27 8b85 c3bf
0.681211896969218 -0.7519122412610239 0.20344480233842724 2.2078722631237047 -0.7556084186395687 -0.061090705060317545 -0.4410858607842795 -0.4307358005478512
-0.2365274608224297 -1.837252419593112 -0.3493838901270234 0.5252982811531337 1.2271538727775575 2.2249637678744234 -0.016201442165360336 -0.13178597362402686
0.8946472977700926 0.994519947393905 -0.5175518114866039 0.22966181812945688 1.5216052778414866 -0.13500000769105486 -1.382905134493528 -0.8097551097083647
0.25150586916788387 -0.34184257489320463 -0.5033846540950534 -1.5997219222262218 0.3924128059620684 -0.11401334158980059 -0.10003388929073058 1.1131915187659807
-0.46227632597662577 -0.6572056416819142 0.5862806751435592 0.022105394634950492 0.7971804154011215 0.11633394059089047 0.5949184754910442 0.8217162563015252
0.49355870709992855 -1.6292861323467809 -0.46790619396207644 -0.16631374520109007 0.27187073874051415 -0.059438486573658994 1.6479809829940686 -1.0353396501389274
-0.4096996617604869 1.3153445244253783 0.8091647519686311 0.4505130980687029 -0.68108656345859 -0.8527818407790448 -0.5356460879345483 1.002653009503459
0.9279423897472446 0.4896816563735738 0.011267925320019022 -0.3124975525059239 1.0914883660907386 0.14753887754351733 0.5176300341014922 -0.8558219040959268
1.0609634938675552 -0.28469987480020176 2.7910875690728036 0.058794649917947965 0.990278455083097 -0.33250843406577285 0.5273940650234035 -0.4241972858887006
0.5779845933227779 0.02375812011156339 0.8048723017283059 0.8217420406541577 -0.875721596955887 0.2709230221113792 0.17608261817592047 -0.007525116330216657
-0.015752155217809025 1.2447932185544364 -0.9071898072032866 -0.26025064288507804 0.14171743209144544 0.6676560561351442 0.3864420801152737 -1.6046426489257901
-0.28678384477072844 0.5907823267911749 -0.41812834450726755 0.15344522209131659 1.1700016453549136 0.4801062808741021 0.1413375168426779 -0.837725309465966
1.4420641457605126 0.2977768417826772 0.8780161868870473 -0.8918241945845324 -1.2165884337937127 0.5441078329700388 2.094386955186364 -0.09994203599441537
0.5623855625800459 -3.142703808194889 2.899673503515675 -1.2111969395955464 -2.5952843460949775 0.8752661019328879 -0.17556082692382935 -0.7216710254531609
0.5786075783866679 1.6323004415839952 -0.08806673361130411 -0.10896378244987528 0.7274034451497071 1.1645221964351087 -1.1055897397750476 0.8061382039373862
1.0544098892149518 1.5633394515756673 -0.9202158368446642 0.9204535464682779 -0.898037727507845 0.9433411781892715 0.28786619516609074 -0.3832655205812088
-1.4977084258089697 1.6117982871569958 0.8985644355583537 -0.07759744515182637 1.8099514262907939 -1.20538806454595 -0.7965191604298171 0.5922817759897554
-0.6027553737293698 1.0463732021983636 -0.822505009016921 0.07341382089558324 -0.8721573699083371 -0.6887751392980066 -0.9367329613873678 -0.8820701083280263
0.03520763192516916 -0.7027081532394944 0.47154873298598426 -0.2245593290737475 0.6266350562184392 1.1041523106990458 -1.7326660416179875 -0.6820501444503027
0.6417674512039795 0.8774490579955989 -2.048669870259306 -1.5254223884348463 -1.6919484459391947 1.3726417268797708 -1.8676980410730633 0.5022621537831112
-0.19899231305969614 0.9919867029221888 1.5180146378179458 0.16132274049003317 -0.15642855051027502 -1.622706241583519 0.11786494347169371 0.09065242718849935
0.5423906568346046 0.28896464589790266 -0.06445631038489757 0.48370384008051176 -0.26877033400200956 0.1271008042272426 0.5074870722606046 -0.9710517651323964
-0.6037287834691852 -0.05714366754339855 -0.3625805637974261 -0.5479308381610459 -0.7990553641131138 -1.4428531324790568 -0.11308923767113636 0.7397492448871262
1.0972811019199349 -0.64225548163768 1.6882407265938764 0.12366760104717436 1.567383500548775 1.302398966755315 -0.015316650302531397 -0.7290560272885698
-0.7093891444281172 0.10459884031473886 0.16529684073806192 -0.3603825604369917 0.664817901869187 0.6231482457610177 -0.770338295971468 0.35070238529783765
-1.448690244997943 -2.657224142943502 -0.04689580379424164 -0.42358198550750686 -0.4905831649185892 -0.2998293728621232 -0.725868001119822 -0.6756624705348226
1.1233808850164493 1.69695178430471 0.16549960464139196 0.3062113326332638 0.15572104969579495 -1.382549391721796 0.5182514017657196 1.3279290757897328
-1.8464308602063078 0.23770568281654922 -0.4257497351206331 -1.5840394538202711 1.303499698699391 0.7702555208307713 -1.2531357925700919 -0.5764077491474534
0.21265462751410918 0.42335471635033123 -0.706025793028283 -0.4658405004263818 0.15480329380054106 0.09937334799818176 -1.7596765173435738 -1.2695556460333024
0.1367249380585812 -1.054982652102529 1.2036892126651084 0.7625011163738149 -0.19128440910512803 -1.2288845184304535 0.884661463625846 -0.7737637287861987
-0.020754556056028092 1.1891788741339255 0.9161387527147298 1.088498894873221 -0.3488722465735557 0.12626376188070682 0.33384404947496554 -0.07247742023418052
1.8723850690014598 0.9173814263014528 0.5026514393756407 0.3918675853693912 -0.99739645305945 -0.5346049248387557 -0.8828357935640802 -0.1525129263070386
